models/audio_video_model.pth (torch, 19104 bytes, 4 tensors)

fc1.weight f4 [128, 24]
00000000: 294b b93d 81d1 01ba 05d3 93bd 88c9 ed3d
00000010: 3968 3cbd e360 973e 9522 7cbe 4b72 b93e
00000020: 1b97 b9bd bed9 073e aa2a 11be 6345 673e
00000030: d81a 41bd 237c 1b3d ed1f 88bd 7a5b 893d
00000040: 6c43 193e 03bd c93e 2120 8c3d f4dc 123e
00000050: 5963 aabd a46d a33c 9feb 013e 94bf 4a3e
00000060: 8b7b 15be 4517 283d 06b0 57be c19c 353e
00000070: 5431 763e ae96 3b3e 86c7 81bd 744d 1bbe
00000080: 779a afbd 81da c1bd 0fb2 a3bd a1f4 b93e
00000090: bbd1 603e 51f3 7ebd a865 893a 3f54 e53c
000000a0: 36db e93d 5189 033e 42a2 b83d dc48 943d
000000b0: 9623 373e 08e7 353e ed09 a0bc b081 7b3d
000000c0: 9b22 033d de73 32be 5f07 9fbd 2777 dcbc
000000d0: c073 36bd 67db a4bd 42c7 993e 8b50 983e
000000e0: 22c5 123d 3929 bb3b 6dd1 7dbd d28b 93be
000000f0: 6970 79be fbb7 103d 1cc6 6b3e 3ca1 a53d
00000100: 2b2b 39be f446 1ebe 7757 3d3d e757 25be
00000110: 322e 5e3e 67d2 95be d869 c83d 090a 163e
00000120: 6fac a0bd de26 fc3d 8ed6 033e 5fec e0bd
00000130: 976b 8e3e e7eb babd 002b 64be 3096 e9bd
00000140: c82d b2bd a3be 2f3d 9694 a03e 2403 91bd
00000150: eced dc3d c60e 9abb eb4a 943c 56d7 85bc
00000160: 05c2 4abd f8b6 94be 10b8 913e f076 3f3d
00000170: f6ea 8e3e 3f72 843d 35a2 53bd 6cc7 e03c
00000180: 565c bdbc 33dd 93bd 5f8b b13e c19f bfbd
00000190: cccb 49be 92fb 72bd 59b7 663e da8a d13d
000001a0: a865 553c 7e12 e43d ff5a 563e 895e 3f3c
000001b0: d3e8 20bc d9cc eb3d cd74 8d3d 4f94 dc3d
000001c0: ec7d 75be 7858 9cbd 8868 173e 8ff3 23be
000001d0: 2401 bd3d f6c9 3c3e a4e4 8f3e fc39 453e
000001e0: 0db8 273e 1d8a 05be 388a b3be 0e41 2f3e
000001f0: 248e 403e 56c5 89ba f45e 2abe a1f4 213e
00000200: 1865 863d 55a4 823e 7799 373c 1ea3 ccbb
00000210: 9d3a 7bbd 0bbb 063d a937 a5bd 6cdd 853e
00000220: 327c 693d 7cc4 483e baca af3d c886 943d
00000230: ee9d 133d 12b7 a0bd 5903 023d 0513 283e
00000240: 8315 433e c146 903e 2393 abbc c1d3 62bc
00000250: 9fff 493d d196 5ebe 9a23 b3bd 446e 24be
00000260: b0e2 8e3d 575d 9b3e da7f 25bd 91e6 c7bd
00000270: de5a e93d 67bc d7bd 5038 d83d e06a ccbd
00000280: 8e58 01be fbbe 8a3e 07dc afbd 71ae 1c3d
00000290: 9432 fa3c 081f fcbd e7dd 6fbe de8f 36be
000002a0: d549 e8bd 9feb 19be d7b4 86be aab7 84be
000002b0: be3e 763e d8f6 103d 5f58 423e 21e1 6abd
000002c0: 4622 f1bc 97b0 2dbe 6eff 36be 348d 01be
000002d0: 1df7 193e 31dc c13b 4cd4 ae3d 180e d0bc
000002e0: 7ff4 e4bd 6b7e 00be 53aa 3e3c e565 a43d
000002f0: d567 703e 2c1f 923d e8af 7c3e be21 80bc
00000300: d11b 28bd 03b8 7b3e e61a ac3e 7f28 5a3e
00000310: 44d2 673e 66bf 68be 7daa 3ebe ae2b d4be
00000320: 8fd2 7f3d 1d10 a53d d807 993e 8fd2 803e
00000330: 15be 523d 3c94 f7bd 9f33 563d e2e7 18be
00000340: 95c3 c33c 3225 8f3c 5614 593d 8704 e43b
00000350: 504e c73e eb50 553d dff7 2cbd d693 9abd
00000360: 706d 243e 1a73 63bc 4eb2 b63e 38a4 0bbe
00000370: 1f7c 52be 49b3 20bd f203 913e 20c6 093e
00000380: 4cd6 363d bbb8 d13d c0e5 943e 5ae6 00be
00000390: d9b2 0f3c 553c d7bd 9c0f 903d 841c d1bc
000003a0: d2cd febd 9d76 8fbe 9eba e93d b80f 37be
000003b0: 0253 803d 0b73 c3bd 3df2 c83e 104a 783e
000003c0: aac1 a93e f741 93bd 0784 e53d 3a1c 38bd
000003d0: 4972 ecbd 8a63 713e ec28 80be 402a 613e
000003e0: a448 9f3d 0939 67bd c693 1f3e 0b31 853c
000003f0: 83a7 c8bc 3c29 073e ab07 5fbd 221d 983e
0.09047539 -0.0004952178 -0.07217983 0.11610705 -0.045997832 0.29566106 -0.24622567 0.3622001
-0.09062024 0.13266656 -0.14176431 0.22585063 -0.04714474 0.037960183 -0.06646714 0.06706901
0.14967126 0.39402017 0.068420656 0.143421 -0.0831973 0.019949742 0.12687539 0.19799644
-0.14597909 0.041037817 -0.21063241 0.17735578 0.24042255 0.18319198 -0.06336884 -0.15166265
-0.08574384 -0.094655044 -0.07992946 0.3631945 0.21955006 -0.062243763 0.0010482566 0.027994273
0.11418764 0.12845351 0.09015323 0.07240459 0.17884669 0.17763913 -0.019535983 0.061402977
0.032015424 -0.17427012 -0.07765078 -0.026912285 -0.04454398 -0.0804966 0.30034834 0.2974895
0.03583253 0.0057117012 -0.061967302 -0.28817612 -0.24359287 0.035331707 0.23024791 0.08087394
-0.18082874 -0.15456754 0.04622599 -0.16146813 0.2169731 -0.29262087 0.09785813 0.14652266
-0.07845389 0.12312101 0.12874815 -0.10982584 0.2781646 -0.09127026 -0.22282028 -0.11405599
-0.08700138 0.042906415 0.31363362 -0.07080677 0.107875675 -0.004701468 0.01810213 -0.016338032
-0.049501438 -0.29045844 0.2846074 0.046744287 0.27913636 0.06467103 -0.051668365 0.027438842
-0.023115318 -0.07219925 0.34676644 -0.093566425 -0.19706649 -0.059321947 0.22530879 0.10231562
0.013024725 0.111363396 0.2093315 0.011680254 -0.009821135 0.11513681 0.069070436 0.10770475
-0.23973817 -0.076340616 0.1478597 -0.16010879 0.09228733 0.18436417 0.28104126 0.192604
0.16378804 -0.13040967 -0.3506639 0.1711466 0.18804222 -0.0010511081 -0.16637784 0.15815975
0.06562251 0.25516 0.011206022 -0.006245031 -0.061335195 0.03289322 -0.08067257 0.26145494
0.057003208 0.19606203 0.08583589 0.0725227 0.036039285 -0.07847418 0.031741474 0.16413505
0.19051175 0.2817898 -0.020944184 -0.013844431 0.049316045 -0.2173722 -0.08747025 -0.16057688
0.06976831 0.3034465 -0.040405132 -0.09760774 0.11394285 -0.10533982 0.10557616 -0.09981322
-0.12631437 0.27098832 -0.08586889 0.038252298 0.030541696 -0.12310606 -0.23424493 -0.17828318
-0.11342207 -0.15031289 -0.26309845 -0.25921375 0.24047372 0.03539166 0.18979023 -0.057343606
-0.029435288 -0.16961895 -0.17870876 -0.12651521 0.15035672 0.0059161414 0.08536586 -0.025397345
-0.111794464 -0.12548225 0.011637288 0.08027247 0.23477109 0.07134852 0.24676478 -0.01564109
-0.041042153 0.24581914 0.33614272 0.2130451 0.22638804 -0.22729263 -0.18619724 -0.41439575
0.062456664 0.08059714 0.29888797 0.25160643 0.051450808 -0.1208882 0.052295323 -0.14932206
0.023896972 0.01747379 0.05299791 0.0069585475 0.38926935 0.052079123 -0.042228576 -0.07547729
0.16057372 -0.013882423 0.3568291 -0.13636863 -0.20555161 -0.03923348 0.28323323 0.13454485
0.044637963 0.10240313 0.29081535 -0.12587872 0.008770668 -0.10509554 0.07034227 -0.025526293
-0.12441601 -0.28020182 0.114125475 -0.1787709 0.062658325 -0.09543427 0.39247313 0.24247003
0.33155566 -0.07190316 0.11206823 -0.044948794 -0.11545236 0.23573127 -0.2503122 0.21988773
0.07777527 -0.056450877 0.15583715 0.016258737 -0.024493938 0.13199323 -0.054450672 0.29709727

fc1.bias f4 [128]
00000000: 3f66 fc3d 4621 383c ce0f 733e 2e8d cf3d
00000010: cbaf eb3d dde3 2e3e 9267 193e bbba 7a3e
00000020: a50b dcb9 7b03 233e b63a 263e a7b8 543e
00000030: dd99 153e da21 8cbb 472c c73c a24b 1ebc
00000040: 3122 db3d 2f3b 103e d333 313e 4df2 983b
00000050: 66da 583e 3788 013e ba96 cb3b 9be7 d63c
00000060: 7378 cebc cd1d 513e 0369 223d 77e1 1d3e
00000070: 338d 973d d1bc 8a3e af04 e33d 6841 a03d
00000080: 690f 2d3e 95ed 1b3e 9a1d 6c3e 1bd6 503e
00000090: d7f6 723e dc60 223e aeaa ccbd 1fc7 e73d
000000a0: 9a6e 863d d7fb 4a3e 6110 613d e9e8 1d3e
000000b0: b12e 3c3d 571a 5d3e 281a 2a3d e711 3b3e
000000c0: 3bf5 b43d 4b98 133e bf8f 843d dbe9 603e
000000d0: 719b 153e 7ef5 8b3d c691 d23b d655 893d
000000e0: 3093 733e c3fc d53d a531 783d 113b e73d
000000f0: 4b53 8f3e e7e8 c1bc aa48 563e 26a2 0a3e
00000100: aeab eb3d 3105 2eb9 beb4 753e 7fd6 c33d
00000110: b802 cb3d 2783 073e f412 da3d a006 b33b
00000120: 1614 003e bcee 1cbc b6a0 043e 0ed1 0e3d
00000130: df8a 913e 5039 563e 37aa cf3d 1187 af3d
00000140: 61e3 493e dac2 bd3d d460 893e ec0b e63d
00000150: 6d4c 9c3e f166 ddbc 2e4c 533e 542f e5bc
00000160: 9ed1 7e3e 829f 703e 117d a33c a14e 1b3e
00000170: 51d0 763e fd4c 503c 96b2 2abd c634 e03d
00000180: 3fee 7d3d a3d7 453e a280 293e b9a9 513e
00000190: 6149 28bd f82b 893e b2e8 203d a022 2a3e
000001a0: 6461 1b3d f1ae c73d 280e c13d 769f 10bb
000001b0: c453 033e d9d6 073e a305 893e c26f 8a3d
000001c0: 307b 3f3e 96c7 9f3c 64de 023e 15b3 9a3d
000001d0: 32cd 323e 31bd 853d 346e 2c3e cd46 143d
000001e0: 82af 913c 269b 213e ac02 7b3e 84f1 0f3e
000001f0: d27f 263e d987 123b 5985 113d 1d36 023e
0.123241894 0.011238402 0.23736498 0.1013435 0.11508139 0.1707911 0.14980915 0.24485295
-0.00041970346 0.15919296 0.16233334 0.20773564 0.14609475 -0.0042764964 0.024313105 -0.009661587
0.10699881 0.14085077 0.17304926 0.0046675564 0.21177062 0.12649618 0.0062130364 0.026233485
-0.025203919 0.20421524 0.03965093 0.1541804 0.073999785 0.2709718 0.11084878 0.07824975
0.1690041 0.15227349 0.23058167 0.20394175 0.23726974 0.15857261 -0.09993492 0.11317276
0.06564064 0.19822632 0.05494726 0.1542088 0.045942966 0.21592079 0.04152885 0.18268548
0.088358365 0.14413564 0.0647273 0.21964209 0.14610077 0.06833933 0.006426069 0.06705825
0.23786616 0.10448601 0.06059422 0.11290563 0.27993235 -0.023670627 0.20926157 0.13538417
0.11507355 -0.00016595867 0.23994729 0.09562396 0.09912628 0.13233624 0.10648146 0.0054634362
0.12507662 -0.009578403 0.12951931 0.03486734 0.28426263 0.209203 0.10139888 0.08570684
0.19715644 0.092656806 0.26831686 0.11232743 0.30527058 -0.027026625 0.20634529 -0.02797667
0.2488465 0.23498347 0.019957097 0.15166713 0.24102904 0.012713668 -0.04167422 0.10947566
0.061994787 0.1932054 0.16552976 0.204749 -0.041085605 0.26791358 0.039284416 0.16614771
0.037934676 0.09750164 0.09426528 -0.0022067702 0.12824923 0.13265552 0.26762113 0.06759597
0.18699336 0.01950435 0.12780148 0.075536884 0.17461088 0.06530226 0.16838914 0.036200333
0.017783884 0.1578184 0.24512738 0.14056975 0.16259697 0.0022358804 0.03552756 0.12715955

fc6.weight f4 [8, 128]
00000000: b5e7 ec3c d4ea 6bbe 9a01 cfbd aafb c4be
00000010: cef9 42be 56fb 843d f3db a73d f68e a6be
00000020: 6611 9ebd 0729 a3bd f0a9 ff3d bc9a b2bd
00000030: 82fd 97be 887e 493e 0ad7 3ebe 1542 d3be
00000040: f06d 4cbe 52a8 b9be 8eee 2cbe d44e a7be
00000050: ce9f 4f3e 029f 41bc 89de 54be c12e 28be
00000060: 6f72 bebe 7612 a2be 7200 b53d eed1 3ebe
00000070: eab2 c8be 9c4e 353e 4c1a 963e fc4f 60be
00000080: 6deb 78be ee02 673e 0b6d fc3d 3cc2 873d
00000090: 23b3 9cbe dfa6 4ebe e9cc e2ba d3ed 443e
000000a0: 049d a0be 88e4 24bc 6708 8cbe 464f 613e
000000b0: 79f1 6cbe 23e3 1bbe dbb6 133d 4b60 b5be
000000c0: e429 463e 6b71 7dbe 58d2 3fbe 888a 5ebe
000000d0: e3b0 67be 011a a8be 939f ca3d 7966 c9be
000000e0: b7fb 97be 8f8d 543e 6238 58be 9478 8f3e
000000f0: 4111 d63d 45f7 463e 621f 2bbd 7772 a33e
00000100: debe 87be 54f1 ebbd a08d f63d 467e 983c
00000110: 76a3 debd 47dd 9d3e 1e72 e2bc 42fc 203e
00000120: e17b 893e 57cf 8e3e 5b34 81be fc47 babe
00000130: c908 8dbe 439f b13d c962 933e 7d11 813e
00000140: 67c2 7abe 3058 7ebe 3b39 75be 346b 253e
00000150: ce0d a83a efeb cebe 625b 3dbe 6d5d 33bd
00000160: f3cd e43d 6d49 443e f8d9 69be 3ccc df3d
00000170: 71f9 87be b9fa 1ebe 0eb3 3ebe 9ff1 3abe
00000180: 4e2e 9abe 1029 86be bb60 273e b04e 453e
00000190: b894 57be 2292 8ebe 2f51 843e de6a 97be
000001a0: 0b43 8cbe f5df 99be 5818 29be a118 62be
000001b0: 2679 40be 59d0 d53c 0da2 82be b240 1bbc
000001c0: 6142 233e a746 83be 078c 353c 8e56 97be
000001d0: 2ee9 18bc 20bf 9c3e a8a1 3fbd 7584 a1be
000001e0: fe1b d0be 4205 243e 4e18 28be 6c4c bdbd
000001f0: b481 6c3e e93b d7bd fc78 6dbe e152 a7be
00000200: 4b2f 6b3d da75 48be 3499 69be e4be fbbd
00000210: 0e58 eabd 3b3e 453d 2db8 693e 7299 7abe
00000220: deff 56bd e0e8 88be 4be2 4dbe 6d66 0c3e
00000230: 30d7 acbe 9b61 afbe 6f0f 7dbe ff06 25be
00000240: 59d7 093e f06e 7dbe cb01 96be 0560 90be
00000250: d9af 1bbe 7083 733e d620 91be 8338 96be
00000260: ef83 89be dbe4 1c3e 135e 793e 86fa ecbd
00000270: 8d3f 90be a384 123e 7e8e a0be 8518 293e
00000280: ca4f 4dbe dcb8 39be 4aac a73d e4ca 0d3e
00000290: d9ab b23d 6b63 ffbd 05db 47bb 8ebb f3be
000002a0: 9e99 75be 9e53 553e 3d30 14be 51e2 d0be
000002b0: b7c5 fa3d 683f 043d 5849 ccbd dba2 3b3e
000002c0: fa32 533e ce62 77be fc2b 90be 1156 1a3e
000002d0: 9716 1b3d 511f 54be fa4d a4be 606c 8cbe
000002e0: c1e3 d63d f3fc cebe 6f73 22be 16b0 04be
000002f0: 5f1b df3d cdc3 bbbe 034a 28be 1db8 033e
00000300: 8f19 2fbe 4b79 b4be 292e 85be 4b9b 9abe
00000310: cc31 493e 50bd 12be 8617 2b3e 1c8b b6bd
00000320: 7d9b 3fbe 2272 ecbc c116 fa3d 87f3 303e
00000330: a16d 4bbe 2078 2d3e b72d e1bd 9cb8 9abe
00000340: 6b49 61be babb 4cbe a7eb c33d 70c3 99be
00000350: ab26 bdbc 8625 4e3e 3a6a 1a3e 0839 913e
00000360: 0c4d 123e 19ef 5cbe d997 06be c251 373e
00000370: 4ad7 203e 000f 9fbe 0f18 853e 79ee a0be
00000380: 27f9 e1be 8078 413e 08c9 d03d 6179 b3be
00000390: 3add 4ebe dbdc 303e f004 debe cef6 9bbe
000003a0: ea4e 9fbe c1bf e53d 0df5 40be d7f1 14be
000003b0: fdeb 69be 5849 12bd 3feb fd3d fdd1 3abe
000003c0: d4a7 acbe a0e9 79be bcf9 973e 5c7d c8bb
000003d0: 7a58 123d ad3b 42bd 35e4 0c3e 7e09 0c3e
000003e0: 7f79 34be b48d c83d a070 7bbe 61f2 263e
000003f0: 56ef c4be fceb aabe 48d9 a73e 4e0d b23e
0.02891908 -0.23038799 -0.10107727 -0.38473254 -0.19040605 0.06493251 0.08196249 -0.32530946
-0.07718162 -0.0796681 0.12483585 -0.087209195 -0.296856 0.19677174 -0.18636718 -0.41261354
-0.19963813 -0.3626123 -0.16887876 -0.3267733 0.20275804 -0.011817696 -0.20788015 -0.16424085
-0.3719668 -0.3165471 0.088379756 -0.1863477 -0.39199 0.17705768 0.29316938 -0.21905512
-0.24308558 0.22559711 0.12325486 0.06628844 -0.3060542 -0.20180844 -0.00173035 0.19231348
-0.31369793 -0.010064252 -0.2735016 0.22002897 -0.2313899 -0.15223365 0.036063056 -0.35425028
0.19351918 -0.24750297 -0.18732584 -0.21732533 -0.2262607 -0.3283234 0.098937176 -0.39335993
-0.2968423 0.20757125 -0.21115258 0.2802168 0.1045251 0.19430263 -0.041777976 0.31923267
-0.26512808 -0.11520639 0.120387316 0.0186149 -0.108710214 0.30832884 -0.027642306 0.15721229
0.26852325 0.27892563 -0.25235257 -0.36383045 -0.27545765 0.08672955 0.28786305 0.25208655
-0.24488221 -0.24838328 -0.23947613 0.16154176 0.0012821497 -0.40414378 -0.18491891 -0.04379027
0.11172094 0.19168635 -0.22837055 0.109276265 -0.26557496 -0.1552533 -0.18622991 -0.18256234
-0.30113453 -0.26203203 0.16345493 0.19268298 -0.21052825 -0.27845865 0.25843188 -0.2957372
-0.273949 -0.30053678 -0.16513193 -0.22079708 -0.18796214 0.026100324 -0.2551426 -0.009475874
0.1594329 -0.2563984 0.011080748 -0.29558223 -0.009332938 0.30614567 -0.046785027 -0.3154637
-0.40646356 0.1601763 -0.16415522 -0.09243092 0.23096353 -0.10509474 -0.23190683 -0.3268042
0.05741815 -0.19576207 -0.22812349 -0.12292269 -0.11442576 0.04815505 0.22824164 -0.24472597
-0.052490108 -0.2674017 -0.20105855 0.13710947 -0.33757925 -0.34254155 -0.24712919 -0.1611595
0.13461055 -0.2474935 -0.29298243 -0.28198257 -0.152038 0.23780608 -0.28345364 -0.2933999
-0.2685847 0.15321676 0.24352293 -0.11571221 -0.28173485 0.1430841 -0.31358713 0.1651326
-0.20049968 -0.18136925 0.081871584 0.13846928 0.087241836 -0.12470134 -0.0030495536 -0.4760403
-0.23984382 0.20832679 -0.14471526 -0.40797666 0.12244742 0.03228703 -0.09974927 0.18323843
0.20624915 -0.24158785 -0.28158557 0.15071894 0.03786334 -0.20715071 -0.3209074 -0.27426434
0.10492659 -0.4042736 -0.15864347 -0.12957796 0.108938925 -0.36672822 -0.16434483 0.12863202
-0.17099594 -0.3524879 -0.2601178 -0.30196604 0.19647902 -0.1433003 0.16708192 -0.08913252
-0.18711658 -0.028863017 0.12211371 0.17280398 -0.19866039 0.16940355 -0.109950475 -0.3021897
-0.22000663 -0.19993487 0.095664315 -0.3003192 -0.023089727 0.20131502 0.15079585 0.28363824
0.14287204 -0.21575584 -0.13143863 0.17902282 0.15707126 -0.31066132 0.25994918 -0.3143194
-0.441354 0.18893623 0.10194594 -0.35053542 -0.20201579 0.1727175 -0.43363142 -0.30461735
-0.31114894 0.11218215 -0.1884348 -0.1454538 -0.22843929 -0.035714477 0.12398385 -0.18244167
-0.33721793 -0.24405527 0.2968272 -0.0061184596 0.03572891 -0.047420193 0.13758929 0.13675496
-0.17624472 0.09792653 -0.24554682 0.16303398 -0.3846385 -0.33383167 0.3278296 0.34775776

fc6.bias f4 [8]
00000000: 2902 dabc ec0d 04bd 93b4 b83d 5a13 eb3c
00000010: d98f c1bd a506 93bc 3d4e 253d 2657 453d
-0.026612358 -0.03223984 0.09018817 0.028695751 -0.09451265 -0.017947504 0.040357817 0.048178814
